==> Building Model 500 100

_________________________________________________________________
Layer (type)                 Output Shape              Param #   
=================================================================
input_1 (InputLayer)         (None, 500, 100, 1)       0         
_________________________________________________________________
time_distributed_1 (TimeDist (None, 500, 100)          0         
_________________________________________________________________
bidirectional_1 (Bidirection (None, 500, 256)          235520    
_________________________________________________________________
dropout_1 (Dropout)          (None, 500, 256)          0         
_________________________________________________________________
bidirectional_2 (Bidirection (None, 256)               395264    
_________________________________________________________________
reshape_1 (Reshape)          (None, 256, 1)            0         
_________________________________________________________________
feature_concat (Flatten)     (None, 256)               0         
_________________________________________________________________
dense_1 (Dense)              (None, 256)               65792     
_________________________________________________________________
activation_1 (Activation)    (None, 256)               0         
_________________________________________________________________
dense_2 (Dense)              (None, 4)                 1028      
=================================================================
Total params: 697,604
Trainable params: 697,604
Non-trainable params: 0
_________________________________________________________________
Train on 2399 samples, validate on 271 samples
Epoch 1/100

  32/2399 [..............................] - ETA: 5:35 - loss: 1.3611 - acc: 0.4062
  64/2399 [..............................] - ETA: 2:49 - loss: 1.3319 - acc: 0.3750
…
